…
    "    return model"
   ]
  },
  {
   "cell_type": "markdown",
   "metadata": {},
   "source": [
    "# JSContana pipeline"
   ]
  },
  {
   "cell_type": "code",
   "execution_count": 25,
   "metadata": {},
   "outputs": [
    {
     "name": "stdout",
     "output_type": "stream",
     "text": [
      "Model: \"sequential_6\"\n",
      "_________________________________________________________________\n",
      "Layer (type)                 Output Shape              Param #   \n",
      "=================================================================\n",
      "embedding_6 (Embedding)      (None, 1024, 50)          7950      \n",
      "_________________________________________________________________\n",
      "bidirectional_11 (Bidirectio (None, 1024, 100)         40400     \n",
      "_________________________________________________________________\n",
      "bidirectional_12 (Bidirectio (None, 1024, 100)         60400     \n",
      "_________________________________________________________________\n",
      "conv1d_21 (Conv1D)           (None, 1018, 128)         89728     \n",
      "_________________________________________________________________\n",
      "conv1d_22 (Conv1D)           (None, 1004, 128)         245888    \n",
      "_________________________________________________________________\n",
      "conv1d_23 (Conv1D)           (None, 980, 128)          409728    \n",
      "_________________________________________________________________\n",
      "conv1d_24 (Conv1D)           (None, 946, 128)          573568    \n",
      "_________________________________________________________________\n",
      "global_max_pooling1d_6 (Glob (None, 128)               0         \n",
      "_________________________________________________________________\n",
      "dense_11 (Dense)             (None, 64)                8256      \n",
      "_________________________________________________________________\n",
      "dropout_6 (Dropout)          (None, 64)                0         \n",
      "_________________________________________________________________\n",
      "dense_12 (Dense)             (None, 1)                 65        \n",
      "=================================================================\n",
      "Total params: 1,435,983\n",
      "Trainable params: 1,428,033\n",
      "Non-trainable params: 7,950\n",
      "_________________________________________________________________\n"
     ]
    }
   ],
   "source": [
    "m = neural_network()"
   ]
  },
  {
   "cell_type": "code",
   "execution_count": 12,
…
     "metadata": {},
     "output_type": "execute_result"
    }
   ],
   "source": [
    "len(dataset)"
   ]
  },
  {
   "cell_type": "code",
   "execution_count": 26,
   "metadata": {},
   "outputs": [
    {
     "name": "stdout",
     "output_type": "stream",
     "text": [
      "Vocabulary Size : 101\n",
      "Model: \"sequential_7\"\n",
      "_________________________________________________________________\n",
      "Layer (type)                 Output Shape              Param #   \n",
      "=================================================================\n",
      "embedding_7 (Embedding)      (None, 1024, 50)          7450      \n",
      "_________________________________________________________________\n",
      "bidirectional_13 (Bidirectio (None, 1024, 100)         40400     \n",
      "_________________________________________________________________\n",
      "bidirectional_14 (Bidirectio (None, 1024, 100)         60400     \n",
      "_________________________________________________________________\n",
      "conv1d_25 (Conv1D)           (None, 1018, 128)         89728     \n",
      "_________________________________________________________________\n",
      "conv1d_26 (Conv1D)           (None, 1004, 128)         245888    \n",
      "_________________________________________________________________\n",
      "conv1d_27 (Conv1D)           (None, 980, 128)          409728    \n",
      "_________________________________________________________________\n",
      "conv1d_28 (Conv1D)           (None, 946, 128)          573568    \n",
      "_________________________________________________________________\n",
      "global_max_pooling1d_7 (Glob (None, 128)               0         \n",
      "_________________________________________________________________\n",
      "dense_13 (Dense)             (None, 64)                8256      \n",
      "_________________________________________________________________\n",
      "dropout_7 (Dropout)          (None, 64)                0         \n",
      "_________________________________________________________________\n",
      "dense_14 (Dense)             (None, 1)                 65        \n",
      "=================================================================\n",
      "Total params: 1,435,483\n",
      "Trainable params: 1,428,033\n",
      "Non-trainable params: 7,450\n",
      "_________________________________________________________________\n",
      "Train on 146 samples, validate on 17 samples\n",
      "Epoch 1/1\n",
      "146/146 [==============================] - 79s 540ms/step - loss: 0.3677 - accuracy: 0.7808 - val_loss: 0.3133 - val_accuracy: 1.0000\n"
…
